checkpoints/state/Net_state_dict.pt (torch, 133711 bytes, 7 tensors)

conv1.weight f4 [24, 12, 4, 4]
00000000: 4f07 2f3a 77d5 573d a1cb 48bd 1fe5 da3c
00000010: ce57 a1bd f163 d03c 3636 103d 42a3 fcbc
00000020: 64cf 48bd 066b 35bc dcc1 0ebd ca83 fc3c
00000030: 1829 debb 983e ddbc 6a59 8ebd 7ea8 d93c
00000040: 283e f4bc 4d07 56bb 3395 bdbc 7630 8fbd
00000050: 7291 f9bc c66e 9abd e53b 3ebd 23bd 0b3c
00000060: 07c5 21bd 982e f1bc 41e0 5abc a8e0 21bd
00000070: 2fa8 6d3c e05b 01bd 6471 43bd 0036 e13b
00000080: 867c 0e3d c957 34bc 70f9 eb3c 8df3 16bd
00000090: bc8c 05bd b6ae f9bc e2b0 06bd edff 533d
000000a0: 724a d73c 07b3 4a3c f392 92bd 9f82 28bc
000000b0: 83da 573c 8292 8f3c eaed 3abd 25d5 dfbc
000000c0: 69da ae3b 55c7 443d 7a87 e3bc d3b9 763d
000000d0: 1f62 d63a f255 3dbc 79c4 d5bc 22e8 35bc
000000e0: d6f4 67bc 26af 94bc cf3d 70bd e3f2 2c3d
000000f0: 169a f3bc 7106 60bd d3bf 0d3d c27f 0c3d
00000100: 1608 023c 738f 463b 51f6 13bd 2545 a839
00000110: 5713 69bd 139e f5bd d74a 80bd 23c6 49bd
00000120: da89 ab3b 551c 13bd 867a 89bd b369 2ebd
00000130: 63b9 f83c 5a96 0fbd bf0b 29bd ff76 10bc
00000140: 8cdb 24bb ebb8 4f3c 26dd b2bc d930 2cbc
00000150: 16ee cc3b f4f8 7abc 1e40 983c b224 2ebb
00000160: 8a0b 90bc d8f0 593d a460 a9bd 119f 823d
00000170: 9b04 00bd c84a a83d e406 ec3c 4360 a2bc
00000180: 5c6f 40bd 136a 5fbd 88ef b13c c043 bbbc
00000190: 1ce1 69bd 1c65 873d 388f a93d 082c 38bd
000001a0: e9a7 883d 87a6 f1bb d41a 803c c1ea 123d
000001b0: 6e92 9c3d 9feb b63d edad 823a 4151 5f3d
000001c0: 9e19 f13c 47a5 713d 34a4 933d 05fb 27bd
000001d0: 4705 163d 195a 003e 7c31 223c 3ad7 cf3d
000001e0: 9a1a 68bd 85a0 1b3d b3aa 3e3c dc93 7cbc
000001f0: ab73 bd3d 1c71 cd3d ebd8 5cba 3cd5 64bd
00000200: 6d72 1abb 3b03 863d 67fe bebb 67f8 21bd
00000210: 0ffa 923d 5e18 aa3d 97eb 233d 9dee 853c
00000220: 60aa 023c 3b08 3bbd ea1b b63d c382 db3d
00000230: d916 873d 09ad 1dbd bd4f 983c 6a24 a13d
00000240: 9e7f 45bd 163c 2d3d 91c7 c73d 52f1 0b3d
00000250: 7d65 953c 96e4 533d d747 0a3e adea ea3d
00000260: a96b 563d f240 873d 9279 ba3d 48e4 143d
00000270: 862f c03a 366c 463d 74a0 683d 1b7d c63c
00000280: ef32 923d 8740 b23d 2b79 75bd 3fc7 10bc
00000290: 6dd2 8a3d affb 0f3d ee57 063e 2dc4 133d
000002a0: f4ac c3bc 00c1 593d d297 d8bc db84 e6bc
000002b0: 5f83 81bd ccdb 903d d334 823b f253 acbc
000002c0: 7783 283d 558f fcbc f46c a03d 3f6f cb3b
000002d0: 876a b5bc e593 9fbc 021d 8cba a80c 1abb
000002e0: dd5f 563c cbda 4f3d e28c 153d bc17 11bd
000002f0: 0d80 fdbc 4d49 98bc 3357 593c 7c8f 273d
00000300: e2f4 df3c feed 60bb 1d8c b13d 13a4 723d
00000310: 47c4 433d dfb6 68bd 83b5 b23c c747 be3c
00000320: 4571 433c 16c2 3ebc 3a1a 8f3c ac97 7f3d
00000330: de61 893d 5340 813d eff7 7b3d b538 e83a
00000340: 0bfe 643d 508b 963d 0329 933c d045 2ebd
00000350: 60b7 87bd 97cf 423d 2b54 073d 159e 0b3d
00000360: 5185 eabc f56d bd3d 0a92 713d 515b 64bd
00000370: a611 6b3d 8950 2bbc 0241 a5bc 88ab 1e3d
00000380: 7bd7 5fbd 631d 893d e7cb 2d3d b5fa 4b3d
00000390: e57f 6b3d e4ee b33d 2031 653d 51dc 6a3d
000003a0: 1058 993d ccd9 a1bc dcf3 8dbd a25f d73d
000003b0: 5314 17bd 64d3 753c 7c42 12bc c3f6 363d
000003c0: 45bd 593d 8d9c 983d 7181 9f3c 209c 6d3d
000003d0: a4a3 0dbd 4af5 843d 0959 3f3d 5b83 973c
000003e0: b4fe 4fbc 0445 023e 05ae 1a3e 893c d73c
000003f0: 1104 7c3b 3e43 293c 198a d33d f38b 22bc
0.0006676809 0.05269381 -0.04902232 0.026720582 -0.078780755 0.02543828 0.03520795 -0.030839566
-0.049025908 -0.01107288 -0.034852847 0.03082456 -0.006779801 -0.027007386 -0.06950648 0.026569601
-0.029814795 -0.003265816 -0.023142433 -0.06991665 -0.030464862 -0.075406596 -0.04644384 0.00852898
-0.03949454 -0.029441163 -0.01335913 -0.03952089 0.01450543 -0.03158176 -0.04771556 0.0068728924
0.034786724 -0.011007258 0.028805465 -0.036853362 -0.032604918 -0.030478816 -0.032883532 0.05175774
0.026280615 0.012371785 -0.071569346 -0.010285049 0.013174656 0.017525915 -0.04563705 -0.027323315
0.005336095 0.04804166 -0.027774561 0.06023581 0.0016356147 -0.0115561355 -0.026094662 -0.011102708
-0.0141574945 -0.018149924 -0.058652695 0.042223822 -0.02973656 -0.054693643 0.034606766 0.034301527
0.007936498 0.0030297905 -0.036123578 0.00032094974 -0.05690321 -0.11993041 -0.062642746 -0.049261224
0.005234939 -0.03591569 -0.067128226 -0.04258127 0.030361837 -0.035055496 -0.041270968 -0.008817433
-0.0025155274 0.012678365 -0.021833967 -0.010509693 0.006253968 -0.015318144 0.018585261 -0.0026572165
-0.017583627 0.053208202 -0.08270386 0.06377996 -0.031254392 0.082173884 0.02881188 -0.019821292
-0.0469812 -0.05454452 0.021720663 -0.022859454 -0.057099447 0.06611082 0.0827927 -0.044963866
0.06672651 -0.007374588 0.015637793 0.03586841 0.07645117 0.0893166 0.0009970047 0.05452085
0.02943116 0.05899551 0.07209054 -0.041010875 0.036626127 0.1253437 0.009899493 0.10148473
-0.056665994 0.03799488 0.011637378 -0.015416112 0.092505775 0.100313395 -0.0008424657 -0.05586742
-0.0023566738 0.06543585 -0.005828667 -0.039543536 0.07176601 0.08305429 0.040019598 0.016349131
0.007975191 -0.045662146 0.08892043 0.107183 0.06596155 -0.038495097 0.01859271 0.078682736
-0.04821741 0.04229363 0.09754861 0.034165688 0.01823687 0.05173167 0.13503967 0.11470542
0.052348766 0.06604184 0.09105219 0.03635052 0.0014662601 0.04844304 0.056793645 0.024229577
0.07138621 0.08703714 -0.059930008 -0.0088365665 0.06778417 0.035152134 0.1311948 0.03607576
-0.023886181 0.053162575 -0.026439581 -0.028139522 -0.06323885 0.07073173 0.0039735823 -0.021036122
0.041141 -0.030830065 0.07833281 0.00620833 -0.022145523 -0.019479701 -0.0010689797 -0.002350608
0.013084379 0.050745767 0.03651131 -0.035423025 -0.030944848 -0.01858964 0.013265419 0.04090832
0.027338449 -0.0034321542 0.086693026 0.059238505 0.047794607 -0.056815024 0.021815067 0.023227585
0.011928861 -0.011642953 0.01746856 0.062400505 0.0670812 0.06311097 0.061515745 0.0017717095
0.055906337 0.073507905 0.017963892 -0.042547047 -0.06626773 0.047561254 0.033039253 0.034086306
-0.028628023 0.09249488 0.058977164 -0.05575115 0.057389878 -0.010456213 -0.0201726 0.038737804
-0.054648858 0.06695058 0.042430785 0.04979964 0.057495017 0.08785799 0.055955052 0.057339016
0.074875 -0.019757174 -0.06931278 0.105162874 -0.036884617 0.015004013 -0.008926984 0.044668924
0.053159017 0.07451735 0.019470902 0.05801022 -0.034579888 0.06492098 0.04671577 0.018495252
-0.012695003 0.1272164 0.15105446 0.026273983 0.0038454572 0.010330973 0.103290744 -0.009921062

conv1.bias f4 [24]
00000000: 163f 4a3c 18e3 7a3c 3979 ba3d a7f7 7e3d
00000010: 1e4d 7c3d a2c0 833d 38f1 d63d bc02 473c
00000020: 6ba9 c63b aa19 d63d 00b4 f53d 01e1 b93d
00000030: a359 df3d a267 403d 05c3 7dbc bd51 2fbc
00000040: 389b cf3d f017 423d ec86 8f3c 2c02 f73d
00000050: 4c98 2ebc c152 9d3d 88dc 803c 503e 133d
0.012344142 0.015312932 0.09105153 0.0622479 0.061596982 0.06433226 0.104952276 0.012146648
0.0060626767 0.10454114 0.11997223 0.09076119 0.10905769 0.046973832 -0.015488391 -0.01070064
0.101370275 0.04738611 0.01752039 0.12060961 -0.010656428 0.076818 0.015730157 0.035948098

conv2.weight f4 [48, 24, 4, 4]
00000000: 3466 933c 6d4a ca3c 1406 683c 5d55 183d
00000010: 659d 153d d4f4 86bd fcd7 9ebb 8c06 103b
00000020: e388 2e3c 871b 83bd f375 523c 9283 09bc
00000030: 397c 363d a6ce 4cbd ae95 963c fc45 723d
00000040: fd76 4e3d db14 4cbc 46e2 263d ca26 113d
00000050: be4e ba3c 8377 a13d 8e79 333b f7bd 3dbc
00000060: cadf a6bb 6482 f83c ab2c ac3c fb76 b6bc
00000070: 455a 5abd 07c4 6a3c f78d 543d 8b9a 2a3d
00000080: e856 103c b001 4abd 32de 92bb 246c 153d
00000090: c513 b73d f106 4bbd c97a 20bc 928d 2bbd
000000a0: 10b1 9a3c f547 17bd c88b 003d c39d f43b
000000b0: 8b20 783c d644 27bc 1560 0f3d 89f2 20bd
000000c0: 6510 41bd 0cec 833b afdd 93bb 47c8 5dbc
000000d0: d409 88bd d28c 8a3d 2a9a 8c3d 4fc5 7c3d
000000e0: 85b6 2d3c 0840 993d c77a f63c fbcb 823d
000000f0: 6f12 043d 8266 5abc bdaa da3c 2f9e 873d
00000100: e74e 8abc 84b2 763b b11a e93c 1fff f53b
00000110: 5166 6f3c c3ea 7bbd 1261 433d 1232 92bb
00000120: a050 1d3d da30 ee3c 6ce3 e63b 8d66 b63c
00000130: 7a69 e13c 4e9b 63bd e986 a6bc ef6f 363c
00000140: 86d8 913d 473c c63b 7fe3 e4bc 263e eabb
00000150: 6e3e 153c 794d 53bd 1478 38bd c9c1 4f3d
00000160: faba 323d 5317 253d c02b 8fbc 9220 a03c
00000170: 6b9b 59bc 6a2d d7bc d90f 473d e0b9 ef3c
00000180: df22 cdbc 7492 813c 05fb 14bd 1364 a9bc
00000190: d3ac cbbc d000 523d cdd7 833d 1ef1 55bc
000001a0: 3a2d 513c 17ae 723d 1e3d 6dbc a597 6d3d
000001b0: 1849 133d d38e 093d 46e5 4f3d ae71 753a
000001c0: 3647 8fbc 6718 063d a55e 35bb 4552 7b3c
000001d0: e0b6 d73c 9f53 83bd 711e 9abb 40d4 87bd
000001e0: a5a9 81bd 5d8a d13c 74d5 cf3c f829 f0bc
000001f0: de6e f23c 0760 42bd 835c cf3b f647 87bd
00000200: 55e4 0ebc 3868 53bd 0b61 183d 8181 053d
00000210: 9dcf 85bd 65b2 5d3d 172e 343c 7d66 d4bc
00000220: 895c c4bc cede 543b 8a8f 173d 0a8b 28bc
00000230: 2511 ea3a 2691 f6bc c6bd 96b9 1eed 16bc
00000240: 2962 fcbc 279a 09bd 7e1e e83c 127d 6e3d
00000250: bc60 553c 61a4 d23b 4772 c03c 81d7 e2bb
00000260: bc31 30bc e5ff 2c3d e7bf 0c3d 6f17 493c
00000270: 339b 1dbd 92a9 19bd f327 8e3b 00c2 fc3b
00000280: 916e c53c 277d e93c ff75 373c 2ca4 3bbc
00000290: a149 4d3c 5935 ea3c f413 af3b de1b 213a
000002a0: 6a43 3b3c f4f9 633d 5d97 1b3d 3ade a13c
000002b0: 3818 863c 21ed 323d c60e 183d 50d2 b43c
000002c0: 6d34 263d 7ff6 6b3a 0ad8 f03c 1c34 c4bc
000002d0: 34cb dabb ec65 803c 65b1 da3c 46a0 513d
000002e0: bd84 cbbc 91d1 7ebc 914d 783d 731a 9fbc
000002f0: 03bc 3abd ec17 14bc 6acc 58bc 6488 32bd
00000300: 39ef 89bc e346 a7bc 335e 8fbc 88fb 27bc
00000310: ffaf b9bc 1fcd e43d 21d5 d13d cc82 0a3d
00000320: 260b e4bb 12de 68bc adaa 473d 3efb 0a3d
00000330: b196 1f3d f446 993c 14be 0b3d 95a3 073d
00000340: 3c3e ab3a 33c7 2abb e8c3 d43c 30f6 063c
00000350: b654 2e3d c3f6 09bd 50d0 8abd e088 3dbd
00000360: c499 593d d6c9 bcbc b24f 433c 93e2 9c3b
00000370: a971 283d c170 a3bc 7605 a03d 14d2 ae3c
00000380: 2ba7 0dbd f79e 153d c6e0 81bc acbe 283c
00000390: 5f62 0abd 7794 1f3d c439 fb3a 1291 e9ba
000003a0: d38d 263d f7da f63c 9ea1 243d 2e1d 363d
000003b0: c50d b63c f9a7 203d ca0d 863b 6107 ff3c
000003c0: c852 313d 81f1 593d 7597 03bd 7086 443c
000003d0: 0c8a edbc 9bde 863d 123b 8e3c ac07 dbbb
000003e0: 5f46 a8bb faa2 953d 7886 ecbb b542 383d
000003f0: 77bd 21bd 38e1 97bc 67e7 ca3c a2c4 fe3b
0.01799307 0.024693692 0.014161605 0.037190784 0.036527056 -0.06589666 -0.0048475247 0.0021976558
0.0106527535 -0.06401735 0.012845504 -0.008393185 0.04455206 -0.050001763 0.01838192 0.059148774
0.050406445 -0.012456144 0.040743135 0.035437383 0.022742625 0.07884123 0.0027385685 -0.011580936
-0.0050925957 0.030335613 0.021017393 -0.022273531 -0.053308744 0.014328963 0.0518932 0.04165129
0.008809783 -0.049318016 -0.004482054 0.036480084 0.089393176 -0.049567167 -0.009794899 -0.04188306
0.018883258 -0.036933858 0.031383306 0.0074650957 0.015144478 -0.010209283 0.03500374 -0.0392938
-0.047134776 0.0040259417 -0.0045125107 -0.013536519 -0.066424996 0.067651406 0.06865342 0.061711606
0.010602598 0.07482916 0.030087842 0.063865624 0.032244142 -0.013330104 0.026692742 0.06621968
-0.016883327 0.0037643025 0.02845511 0.0075072194 0.0146117965 -0.061503183 0.047699995 -0.0044615353
0.038406968 0.029076029 0.007046154 0.022265697 0.027516115 -0.055568032 -0.020328002 0.0111350855
0.07121377 0.006049666 -0.02794051 -0.007148522 0.009109123 -0.051587556 -0.04503639 0.050721917
0.043635346 0.040305447 -0.017476916 0.01954678 -0.013281683 -0.026266772 0.048599098 0.029263437
-0.025041042 0.015816905 -0.036372203 -0.020677602 -0.024862682 0.051270306 0.06437645 -0.013057975
0.0127671305 0.059248056 -0.0144799035 0.058005948 0.03595838 0.033583473 0.05075576 0.0009362948
-0.01749001 0.032738116 -0.002767482 0.015339439 0.026332319 -0.06412434 -0.004703336 -0.0663228
-0.06331185 0.025578672 0.025370337 -0.029316887 0.029593881 -0.04745486 0.006328167 -0.06605522
-0.008721431 -0.051613063 0.037201922 0.032594208 -0.0653374 0.05412521 0.010997317 -0.025927776
-0.023969905 0.0032481435 0.037002124 -0.010287056 0.0017857893 -0.030098509 -0.00028751622 -0.009211807
-0.030808525 -0.033594277 0.028334852 0.058224745 0.013023552 0.006428287 0.023491992 -0.0069226627
-0.010754045 0.042236228 0.0343627 0.012273653 -0.038478088 -0.03751523 0.0043382584 0.0077135563
0.024100574 0.02850206 0.011197566 -0.011452716 0.0125297615 0.028589891 0.005342955 0.0006145815
0.011429647 0.055658296 0.03798615 0.019759286 0.01636897 0.043683175 0.037123464 0.022072941
0.04057734 0.00090012694 0.02939989 -0.023950629 -0.0066770557 0.0156736 0.026695916 0.05117824
-0.024843568 -0.015552894 0.060620848 -0.019421792 -0.04558946 -0.009038907 -0.01323233 -0.043587103
-0.016837703 -0.020419544 -0.017500972 -0.010252841 -0.02266693 0.11171936 0.10245729 0.033816144
-0.006959337 -0.014213102 0.048746753 0.03393101 0.03896207 0.01871059 0.03411682 0.03311499
0.0013064812 -0.0026058673 0.025972322 0.008237407 0.042561255 -0.033682596 -0.06778014 -0.046273112
0.053125158 -0.023045462 0.011920856 0.004787752 0.04112402 -0.019951226 0.078135416 0.021340407
-0.034583252 0.036528554 -0.01585425 0.010299366 -0.03378522 0.038959946 0.0019166996 -0.0017819724
0.040662598 0.030133707 0.040193193 0.04446142 0.022223363 0.03922269 0.0040909993 0.031131448
0.043291837 0.05320883 -0.032126863 0.011994943 -0.02899649 0.065854274 0.017362151 -0.006684264
-0.005135342 0.07306476 -0.0072181784 0.04498549 -0.03948733 -0.01854001 0.024768544 0.0077749053

conv2.bias f4 [48]
00000000: c2c4 9ebc 041b bbbc 3ba2 89ba 8a4d 783e
00000010: 64f0 633b b8fb d33b 8c0e a33b 8778 963d
00000020: 437d 4c3d bcb1 d23c a49f 1a3d e987 62bc
00000030: 4f20 3bbc f554 3a3d 1228 7d3c 5808 a93d
00000040: 7732 013b 4172 933d b16a 843d 16d2 803c
00000050: 1cdb 753d 9c03 3c3d 5af3 c13b c0a0 f13c
00000060: b76e f53c 41f4 9a3d 59b3 f23c 2932 f83c
00000070: ceb4 b83c d631 773a 869d 1b3c 38cf c73c
00000080: 38fc 8e3d 303c 3abc 978a 053c 04f8 a03c
00000090: da69 813d 5190 193c 6659 a9bc d3e1 5d3d
000000a0: 41f7 bbbc 6d41 113d 441a 0f3c fb22 083e
000000b0: 3271 7a3c f812 723a 2560 3fbc fdaa 963d
-0.01938093 -0.02284003 -0.0010500619 0.24248329 0.0034780735 0.006469216 0.0049760994 0.073472075
0.049924146 0.025719516 0.0377499 -0.013826349 -0.011421277 0.045491178 0.015451448 0.082535446
0.0019713917 0.071995266 0.06465662 0.015725177 0.060023412 0.04590188 0.0059189023 0.029495597
0.02996002 0.07566119 0.029626535 0.030297356 0.022547152 0.00094297284 0.009498006 0.024390802
0.06981701 -0.011366889 0.008150718 0.019649513 0.06319018 0.009372787 -0.020672511 0.05417044
-0.022945048 0.035462786 0.00873429 0.13294594 0.015285777 0.0009234394 -0.0116806375 0.07356832

fc1.weight f4 [50, 192]
00000000: 09d9 a4bd 726d 063d b453 f8bc 897d 44bd
00000010: c6b7 3d3d 51de 973d 16f2 ee3d a3a9 df3d
00000020: ce28 01bd a2e5 15bc 070f 1a3e 3808 2f3e
00000030: 876f 29bd 4543 d2bc 3222 413d 994a 933d
00000040: d3af 7abc 769c bfbd d1d3 7abd 2589 1dbd
00000050: 2652 b5bc 94df 723d 9187 6dbd 0f9d 9d3d
00000060: eab2 8a3d 068e 5b3d 90f5 69bd 7da1 ac3c
00000070: 86e8 aabd bd0b d93c a240 79bc c9b2 1c3d
00000080: 4263 5b3d 1ac5 92bd 480d d13c 83c8 66bc
00000090: ab57 e93c 59b0 27bc 230f 1d3e ff70 613e
000000a0: bb60 48be 16eb b7bd a0d3 bfbd b7b7 c5bd
000000b0: 9c4e c73d 6fc6 2e3c 9931 a93d ebbd 6ebd
000000c0: b5b1 603d 73ee 2f3d 83e4 88bd 1a56 1d3d
000000d0: 79f9 403d d43a b8bc b123 263d bcd4 963d
000000e0: 6c89 00bd 8a72 01be 186f b13c 89f9 59bd
000000f0: 3a84 b33c 4fab c53d 60b4 dc3b 1dd0 afbd
00000100: 9cca 0fbe 8509 9bbd d23a bf3c d9e7 313d
00000110: 807a 0bbd ed1c eabc ce8d 33bd 18f4 b3bc
00000120: 5da7 b03c a1cd 3c3d 93fc 393d 0858 353d
00000130: 0e71 11be 1c3e 86bd 035d dc3c 0f8d 3dbd
00000140: 09b2 883c 3134 d43d f9b3 c1bd dead 663c
00000150: 649f 22bd f1a7 a43d 9dbb 4dbd ffd1 f1bd
00000160: f70d 16be 3fbc 31be 8cc2 2e3c aefc 21ba
00000170: be22 4ebc a5b8 7f3c 8275 94bd 49ea b03a
00000180: 08ba cbbc fcb6 c03d 2f4c b73d 0199 063e
00000190: 4e8d 08be 12c5 febd f5f6 47bd fbb9 0d3d
000001a0: 34a9 ea3c c63f 003d 166a 033e 4f9b a93d
000001b0: 8dde 593d be65 b2bd 554d c6bd 0fb3 5abc
000001c0: f14f 77bd 515c 3cbc a3cd a03c 201a ed3d
000001d0: e31e 7cbd f217 edbd 575f 503d cc2f 9fbd
000001e0: d7d2 8b3d c604 833d 7694 073e df57 f53d
000001f0: 75d1 1e3d 483a e73c 5c96 a53d a6e9 963d
00000200: 4162 91bd 4d47 3dbd 744a 733c 553e 37bd
00000210: 0bc9 043b f428 c93d 62ca 4c3e 764c 673d
00000220: 2e80 bcbc f630 41be 8c32 10bd d9c1 7a3b
00000230: c610 3e3c 7f84 7cbd 2048 87bd 279b 2b3c
00000240: 4bb3 db3b f185 163d e20c d8bb 2720 32bd
00000250: 76a9 2bbc 6953 4f3d a10d 233d 248c 663d
00000260: 2aa8 793d 0ca5 193d 3007 3e3d 4d12 343e
00000270: 78b2 c93d c9f0 8c3d 44a0 da3d 4eaf 1e3e
00000280: 75e4 a1bd f38a edbd a9c4 a6bd b2f7 afbd
00000290: a0b3 7f3d 64f9 72bc 3eb4 313e 8b26 fb3c
000002a0: ed81 72bb e1aa c73d b104 573e c57a 67bd
000002b0: 5cea 8c3b c567 a63d 23a3 b73d a94d 663d
000002c0: 97d9 233d a7f3 6c3d 941d 043d fdcc 713d
000002d0: 70e8 53bd edc8 babd ddde 42bd 1d90 08bd
000002e0: 5a74 053d 8209 d03d c3a5 8dbd a95c 893d
000002f0: 4cf3 6fbb d1c5 13bd d122 b23c fa2f 533b
00000300: 9285 083e ee65 1b3c 46aa 86bc c8e9 ad3d
00000310: 44e8 95bd 2a2f 5f3c a6cc 8ebd 6ac5 fb3c
00000320: 8bb7 753d 8f13 90bd 9e3d a8bc 912b e1bd
00000330: 7e02 493d d0aa 823d 4c20 c43d c1f4 cfbb
00000340: 2ef0 17bd 83e0 fb39 edd7 e13d 0e99 b83d
00000350: a3d6 34bc 995a f13a 7257 c93d 28c0 aebc
00000360: 332d a7bd 57e0 203c f686 8a3d a035 b73d
00000370: c1b0 013e c60f 0fbd b436 053e c55f fb3d
00000380: 2191 babd b02a 103d 0f7e b7bb 80ee f33d
00000390: 3dd9 7ebd 61b1 0fbd 5efa 53be 6416 15be
000003a0: d044 363e bc26 4e3e 8f97 013e 69a3 bc3d
000003b0: 5b91 803c edd0 483d d9ac 1ebe a83d 493d
000003c0: f7c6 2bbd 1834 e83c 15a8 bd3d c949 f9bd
000003d0: 1b8d 91bb 95c2 523d fa96 3cbd 665c d43c
000003e0: ce0d c63d 37dd a73d b5d6 3b3d 0b70 90bb
000003f0: 2de3 863d 5ea4 61bd b778 ac3d 31d4 b33d
-0.08049209 0.03281922 -0.03031335 -0.047971282 0.046317838 0.0741545 0.11667268 0.109210275
-0.031533055 -0.009148987 0.15044795 0.17092979 -0.041366126 -0.025666842 0.04715175 0.07191963
-0.015300709 -0.093560144 -0.06123716 -0.03846087 -0.022133898 0.059295252 -0.057990614 0.07695972
0.067724064 0.05360224 -0.057118952 0.021073097 -0.083451316 0.026494855 -0.015213164 0.03825644
0.053561457 -0.071665004 0.025519028 -0.014085892 0.028484186 -0.010234916 0.15337805 0.22015761
-0.1956815 -0.08980386 -0.09366536 -0.096541815 0.097317904 0.010667427 0.08261413 -0.05828659
0.054856975 0.042952012 -0.0668421 0.03841219 0.047112916 -0.022488989 0.04056138 0.073647946
-0.031381056 -0.1264135 0.021659419 -0.05321649 0.021913636 0.09651815 0.0067353696 -0.08584616
-0.14042133 -0.07570175 0.023343477 0.043433998 -0.034052372 -0.028578246 -0.043836407 -0.021966979
0.02156418 0.04609454 0.04540689 0.044273406 -0.14203283 -0.06554815 0.02689982 -0.046277102
0.016686456 0.10361517 -0.09458155 0.014079539 -0.039702788 0.08039845 -0.05022775 -0.11807632
-0.14653765 -0.17356966 0.010666501 -0.0006179315 -0.012581525 0.0156079875 -0.07248975 0.0013497557
-0.02486898 0.094099015 0.08950078 0.13144304 -0.13335153 -0.12439932 -0.0488195 0.034601193
0.028645135 0.03131082 0.12833437 0.08281576 0.053190757 -0.08710812 -0.09682719 -0.013348355
-0.060378972 -0.011496619 0.019629305 0.115772486 -0.061552893 -0.11576833 0.050872173 -0.077727884
0.06827324 0.06397395 0.13240227 0.11979651 0.038773973 0.028226033 0.080853194 0.07368784
-0.070988186 -0.046210576 0.014849294 -0.04473718 0.0020261433 0.09822264 0.19999078 0.056469403
-0.02301034 -0.18866333 -0.035204455 0.0038262515 0.011600679 -0.061649796 -0.066055536 0.010474003
0.006704723 0.03674883 -0.0065933326 -0.043487694 -0.010477414 0.050616655 0.03980792 0.056285992
0.06095139 0.037510917 0.046393573 0.17585106 0.09848493 0.068818636 0.106750995 0.15496561
-0.07904903 -0.11598768 -0.08142979 -0.08592166 0.062427163 -0.014829967 0.17353913 0.030658027
-0.0037003711 0.097493894 0.20997883 -0.056513567 0.0043003988 0.08125261 0.08966663 0.056226406
0.04000243 0.057849552 0.03225477 0.059033383 -0.05173534 -0.09120355 -0.04757582 -0.033340562
0.032581665 0.101580635 -0.06916382 0.06707127 -0.0036613522 -0.036077324 0.021745117 0.0032224641
0.13332203 0.009484751 -0.016438615 0.08491856 -0.07319692 0.013622085 -0.06972627 0.030733783
0.059989493 -0.070349805 -0.020537194 -0.10994638 0.049074642 0.06380236 0.09576473 -0.0063463156
-0.037094288 0.00048041725 0.11027513 0.09013568 -0.0110375015 0.0018413841 0.09831132 -0.021331862
-0.08162918 0.009819112 0.06764023 0.08945775 0.12665083 -0.034927152 0.13009149 0.12274126
-0.091097124 0.03519696 -0.005599744 0.11910725 -0.062218893 -0.03508127 -0.20700976 -0.14559323
0.17799687 0.20131963 0.12655471 0.092108555 0.01569431 0.049027372 -0.15495624 0.049131066
-0.041937795 0.028345153 0.09260575 -0.121722765 -0.00444187 0.0514551 -0.04604242 0.025922965
0.09670602 0.0819649 0.045859057 -0.004407888 0.06586299 -0.055088393 0.08421462 0.08780707

fc1.bias f4 [50]
00000000: 3dc6 c8bc 6e7b 5d3a e4ff 1ebd 8955 923c
00000010: 3f10 8c3d 2930 adbc 841a 91bc c478 593d
00000020: 5825 773d 7fd6 7a3c b84b 303b e8c2 b03c
00000030: 7891 db3c 0fbc 2ebd 467b 22b7 7414 b53d
00000040: d0c0 08bd 3600 993d ba89 b33c cc51 b03c
00000050: fb9a c5bc c5ae 47bd 1114 6d3d cf0b 923d
00000060: 26ea 0d3d 2fe7 56bd 0eae ab3d 60fc 4abd
00000070: b640 473d c1fa 94bd 2d89 a23d 62eb 963d
00000080: 3eec 13bd e241 3d3c 6dfd e13c fe45 b0ba
00000090: 871a 053d 41f9 dd3c d511 22bd c605 9bbc
000000a0: 1dab 243c 1df5 dfba 0d26 8d3d 7aed 913d
000000b0: fd30 96bd 2071 993c aa5a 773c be74 7fbd
000000c0: a637 553c 1ae8 593c
-0.02450859 0.00084488734 -0.038818255 0.017863052 0.06839036 -0.021141129 -0.017712839 0.053093687
0.06033835 0.015309929 0.00269006 0.021577314 0.026802763 -0.042659815 -9.684654e-06 0.08841792
-0.033387005 0.07470743 0.02191626 0.021523379 -0.024121752 -0.048750658 0.057880465 0.071311586
0.03464713 -0.052466568 0.08382808 -0.04955709 0.048645698 -0.0727439 0.079363205 0.073691145
-0.03611397 0.011551352 0.027586663 -0.0013448594 0.032496 0.027096393 -0.039567787 -0.018923651
0.010050562 -0.0017086599 0.06892023 0.07125373 -0.073335625 0.0187307 0.0150973 -0.062367193
0.013013756 0.013299966

fc2.weight f4 [1, 50]
00000000: 2e02 15be 32c4 793e 5ced 28be 4739 593e
00000010: b7f5 403e 2b00 c23d f01b fabd 4970 2cbe
00000020: 1674 0fbe 2684 32be 351f 22be 6047 0a3e
00000030: 7e7b 7b3e 0d9a 3ebe 7ed6 593e 99cb 213e
00000040: a35e c6bd c88b 2f3e 4d05 34be cade 74be
00000050: f249 50be 7a5a 45be 0f39 0bbe e213 6f3e
00000060: 7c75 5abe 7bb8 c2bd 9b30 303e ce03 d5bd
00000070: 6d92 63be 1733 b8bd 7c8f 773e 2995 3cbe
00000080: 4db1 613e 3620 40be 582f 79be a3c5 493e
00000090: 20c5 0dbe 07de 3cbe 5cc9 38be 337a 5bbe
000000a0: 04e8 4bbe 9886 6dbe 8e56 09be 910f 6d3e
000000b0: 467f 08bd 27cf 81be 5a02 5cbe 23ee 06be
000000c0: 5e38 44be 6353 2dbe
-0.14551613 0.24391249 -0.16496795 0.21213256 0.18843733 0.09472688 -0.1221236 -0.16839708
-0.14009127 -0.17433223 -0.15832217 0.1350379 0.24558827 -0.18613453 0.21273229 0.15800323
-0.09686019 0.17143166 -0.17580147 -0.23913112 -0.20340708 -0.19272795 -0.13595985 0.23347428
-0.21333879 -0.09507843 0.17206042 -0.10401116 -0.22223826 -0.089941196 0.24175829 -0.18416275
0.22040291 -0.18762287 -0.24334466 0.19704299 -0.13844728 -0.18444072 -0.18045563 -0.21433334
-0.19912726 -0.23195875 -0.13411924 0.2315047 -0.033324502 -0.25353357 -0.21485272 -0.1317678
-0.19162127 -0.16926341
