checkpoints/models/Net.pt (torch, 135119 bytes, 7 tensors)

weight f4 [24, 12, 4, 4]
000000 20 2c cc 3b d6 1c 46 3d f9 a8 8f bd d0 47 23 3c
       0.006230846 0.048367344 -0.07014651 0.009965852
000010 b9 57 8d bd c4 46 f0 3c 20 0d 2d 3d aa 9e 7d bd
       -0.069014974 0.029330619 0.042248845 -0.061918892
000020 ba bc 53 bd a0 6b e0 bb 34 2d 14 bd 10 69 10 3d
       -0.051693656 -0.0068487674 -0.03617592 0.035256445
000030 d0 7e 4c 3c 0a 17 21 bd d9 d5 8d bd b0 97 16 3d
       0.012481406 -0.039328612 -0.06925554 0.036765754
000040 60 0e 62 bc 30 24 fa 3c 20 92 7e 3b 6a 42 91 bd
       -0.013797373 0.030534834 0.0038844422 -0.070927456
000050 bc 07 43 bc d4 1c 3c bd ac 2e 64 bc e6 eb 14 3d
       -0.0119036995 -0.04592593 -0.013927143 0.036357783
000060 c2 aa 6b bd e4 53 61 bc 68 fa b4 bc 06 6a 65 bd
       -0.057535894 -0.013752911 -0.02209206 -0.056009315
000070 98 17 0e 3c 05 8c 28 bd 5c 42 7e bd f0 96 d1 bb
       0.008672617 -0.041149158 -0.062075004 -0.006396167
000080 84 f9 1d 3d c0 9a 55 3d a6 eb 28 3d 76 64 84 bc
       0.038568035 0.052149534 0.041240357 -0.016161185
000090 c0 e1 f3 ba 80 2a 81 3b 00 4c 03 3d 22 f0 83 3d
       -0.0018606707 0.003941834 0.0320549 0.06442286
0000a0 ba 6c 1f 3d 28 12 3e 3d 4d e2 23 bd 58 07 60 3c
       0.03892205 0.046404034 -0.04001074 0.013673626
0000b0 40 c4 47 3c 2a 01 24 3d 70 73 86 bc 3c 70 d8 bc
       0.012192786 0.040040173 -0.016412467 -0.026420705
0000c0 2c 38 87 bc c4 d5 31 3d b4 e0 62 bd 14 28 5d 3d
       -0.016506277 0.043416753 -0.055390075 0.0539933
0000d0 a0 4e 17 3d 64 04 a9 3c 6e 98 06 3d 92 be 48 bd
       0.036940217 0.020631976 0.032860212 -0.049009867
0000e0 fe b7 e0 bc a0 0a 1a bc e2 d8 4a bd ac 5e 00 3d
       -0.027431484 -0.009401947 -0.04952324 0.031340286
0000f0 b3 5f 02 bd 77 1a 2d bd bc 47 6a 3d 96 60 15 3d
       -0.031829547 -0.042261567 0.057197317 0.036469065
000100 f0 6c 51 3d 7c b5 87 3d 00 d6 a7 bb d8 67 bb 3c
       0.05112928 0.06626412 -0.0051219463 0.022876665
000110 60 65 41 bb 41 df 8d bd 90 35 4c 3c b8 94 0e bc
       -0.0029509887 -0.06927348 0.012463942 -0.0087024495
000120 98 75 c9 3c 40 e7 19 bb dd 86 81 bd a4 19 1b bd
       0.024592206 -0.0023483783 -0.06324551 -0.03786625
000130 a8 a8 36 3d 90 9f c1 bb ba 4b ed bc 4c 56 49 bc
       0.044594437 -0.005908914 -0.028966773 -0.012288641
000140 10 ee f2 3b 98 07 cf 3c 20 94 32 bb 88 4d a1 3c
       0.007413633 0.025272176 -0.0027248934 0.01969029
000150 e0 6c 83 bb f8 50 47 bd 80 29 65 3a a2 e8 c5 bc
       -0.0040107816 -0.048661202 0.0008741841 -0.02415878
000160 e0 b9 0d 3b cc 44 0b 3d 6b 75 8e bd 64 79 b3 3c
       0.0021625683 0.034001157 -0.069559895 0.02190847
000170 d2 8e 13 bd 34 f6 69 3d 98 df d5 3c f5 5f 3d bd
       -0.036024876 0.057119563 0.026107594 -0.04623409
000180 ae b9 3c bd 20 d7 85 bd 38 5f 92 3c 4c 6f 1b bd
       -0.046075515 -0.065351725 0.01786767 -0.037947938
000190 ae 9a 52 bd ea 2e 2b 3d ee 62 8d 3d ba 2c 53 bd
       -0.051417045 0.041792788 0.06903635 -0.051556326
0001a0 12 b3 4d 3d 0b 52 14 bd 40 29 bf ba ac ac df 3c
       0.050219603 -0.036211055 -0.0014584437 0.027304016
0001b0 ec 62 66 3d 76 e1 0f 3d 21 d1 0d bd ac 79 13 3d
       0.056246683 0.035127126 -0.03462327 0.036004707
0001c0 ac 2f df 3c 78 5f 17 3d fc 9e 83 3d 8c c4 51 bd
       0.027244411 0.03695628 0.06426808 -0.051212832
0001d0 70 2a f8 bb cc 09 b9 3c c5 59 87 bd e2 06 82 3d
       -0.0075734183 0.02258768 -0.06608919 0.06348969
0001e0 29 bb 6e bd f4 3f 77 bc 11 bd 0d bd 4a 3c 27 bd
       -0.05828396 -0.015090931 -0.034604136 -0.04082898
0001f0 ec e4 8d 3d 96 36 1b 3d 6a d3 13 bd 38 32 6e bd
       0.06928429 0.037893854 -0.036090292 -0.05815336
000200 20 35 d8 bb fe 29 1a 3d fc bf 79 bc 16 91 49 bd
       -0.00659813 0.037637703 -0.015243527 -0.04921063
000210 68 c9 48 3c 6e 07 1d 3d 30 ef 5e bc 5c 6d 87 bc
       0.01225505 0.038337164 -0.013606831 -0.016531639
000220 b4 f7 64 bc 87 ab 6f bd b0 54 31 3d e6 61 8c 3d
       -0.013975073 -0.05851319 0.043293655 0.0685461
000230 ba e8 0e 3d 6f e1 20 bd 10 7b a8 bc a0 5b 86 3d
       0.034889914 -0.03927749 -0.020566493 0.06560445
000240 e8 fa a4 bc 58 f8 d1 3c c2 bb 54 3d d0 36 ff 3c
       -0.020139173 0.025631115 0.051936872 0.031154066
000250 b6 0b b4 bc b0 8c 03 bd d2 be 8b 3d b0 43 65 3d
       -0.02197824 -0.032116592 0.068235055 0.055972755
000260 e0 e4 60 3c 30 80 82 3c 44 4e 40 3d 00 4b f6 3a
       0.013726443 0.015930265 0.04694964 0.0018790662
000270 f0 44 92 bb 24 16 21 bc 60 30 b8 3c a0 2c 6a 3b
       -0.0044637844 -0.009831939 0.022484004 0.0035732165
000280 d0 f7 8c 3d 7c a4 7d 3d 28 5f 67 bd 31 71 0f bd
       0.06883204 0.061924443 -0.056487232 -0.035020057
000290 d8 3c 8d 3c ba 92 45 bd cc cf 52 3d c6 ac cd bc
       0.017240927 -0.048235632 0.0514677 -0.025106799
0002a0 2d 15 41 bd a0 e0 97 bb b8 c9 52 bd 1c f1 76 bd
       -0.047139335 -0.0046349317 -0.051461905 -0.060288534
0002b0 56 06 7e bd 80 53 18 ba 66 c2 01 bd 4e 86 56 bd
       -0.06201776 -0.00058107823 -0.031679533 -0.052374177
0002c0 32 e5 34 3d 79 42 44 bd 90 57 8a 3d 0c b5 a3 bc
       0.04416389 -0.047914956 0.067549825 -0.01998379
0002d0 ac e1 27 bd 96 49 00 bd 90 d3 89 bb 48 0d cc bc
       -0.0409867 -0.031320177 -0.0042061284 -0.024908677
0002e0 40 6a b7 ba 30 1e 66 3d ac 68 fb 3c 56 59 93 bd
       -0.0013993457 0.056181133 0.03068956 -0.07194774
0002f0 fa 07 2b bd 9b 0c 26 bd 50 04 ef 3c e0 6d f1 3c
       -0.041755654 -0.040539365 0.029176861 0.029471338
000300 80 3e c4 3c 1c 0f be bc a4 31 66 3d 74 4f 19 3d
       0.023955584 -0.023200564 0.056199685 0.037429288
000310 6a a2 27 3d ba 1d 86 bd 40 af 9b 3c c0 9e ee 3a
       0.040926374 -0.06548639 0.019004464 0.001820527
000320 90 fe d3 bb 7a 76 45 bd 34 bc d6 bc 04 9e 4b 3d
       -0.006469555 -0.04820869 -0.02621279 0.049711242
000330 04 e5 6b 3d 52 4c 24 3d 38 2c 5b 3d e0 b6 a9 bb
       0.057591453 0.040111847 0.053508967 -0.005179271
000340 0e a2 4b 3d f6 d6 28 3d 80 cb 12 bb b2 e3 7f bd
       0.049715094 0.041220628 -0.0022399127 -0.062473007
000350 09 71 85 bd c0 55 ee ba 60 71 39 bc ec 35 85 3c
       -0.065157 -0.0018183514 -0.011318535 0.016261064
000360 c2 89 53 bd d4 2e dc 3c d8 a7 52 3c 1f d9 67 bd
       -0.051645048 0.026877798 0.0128574 -0.056603547
000370 0c 57 58 3d 39 1e 0e bd ac 22 63 bc 1e 01 49 3d
       0.05281739 -0.03469679 -0.013863247 0.04907333
000380 f8 d4 7d bd e4 68 e0 3c c0 eb d8 3c 20 03 73 3b
       -0.06197068 0.027393766 0.026479602 0.003708072
000390 f4 e8 45 3d ee 1a 8f 3d 60 b7 9d 3b a0 6b e2 3c
       0.048317865 0.06987558 0.00481312 0.02763921
0003a0 ee d3 49 3d de 04 21 bd be ae 40 bd d8 b5 66 3d
       0.049274378 -0.039311282 -0.047041647 0.056325763
0003b0 4e e0 59 bd 00 67 c8 3a 6a 24 14 bd 08 f5 04 3d
       -0.05319243 0.0015289485 -0.03616754 0.032460243
0003c0 5a b0 2d 3d 8e 1e 86 3d e8 1a 87 bc da c1 05 3d
       0.04240451 0.065487966 -0.016492322 0.032655574
0003d0 03 5f 25 bd e0 51 29 3d 70 a1 9a 3c d2 e6 84 bc
       -0.040373813 0.041337848 0.018875808 -0.016223345
0003e0 ed 58 14 bd 50 6d 6e 3d 6a ee 8a 3d f0 2c 80 3b
       -0.03621762 0.058209717 0.06783755 0.003911607
0003f0 21 88 0b bd a0 ad ee bc 14 7a 7f 3d 04 11 29 bd
       -0.03406537 -0.029135525 0.062372282 -0.041275993

bias f4 [24]
000000 76 03 2c bd 9d 73 0a bd 3a c0 8a 3d 20 00 63 3b
       -0.041995488 -0.033801664 0.067749456 0.0034637526
000010 98 41 e2 3c 24 e0 e9 3c 0c a2 43 3d c0 4f 68 bd
       0.027619168 0.028549261 0.04776196 -0.05671668
000020 b2 99 84 bd e4 f6 97 3c 50 39 8c 3d c0 21 84 3d
       -0.064746276 0.018550344 0.06846869 0.0645175
000030 bc 78 dc 3c 00 6d 49 3b c8 74 92 bd ee 1e 6a bd
       0.02691304 0.0030735135 -0.071511805 -0.057158403
000040 f6 73 80 3d 5c 5d 24 bc 02 ea 3d bd 62 11 57 3d
       0.06272118 -0.010032024 -0.046365745 0.052506812
000050 a0 13 90 bd 76 36 14 3d 68 7a da bc 40 fc d0 ba
       -0.07034993 0.03618475 -0.026669696 -0.0015944317

weight f4 [48, 24, 4, 4]
000000 90 9b 75 3c 3e 93 36 3d 4c 43 f4 3c 10 07 1e 3d
       0.014990702 0.044574015 0.029817246 0.038580954
000010 97 f4 dc bc d0 98 93 bb 04 3d b0 3c 50 1b 9e 3c
       -0.026972098 -0.0045043007 0.02151347 0.019300133
000020 20 ae c0 3c 10 fd 22 bd b8 bc a0 3b b0 22 26 3b
       0.02352053 -0.03979212 0.0049053095 0.0025350265
000030 a6 04 40 3d bc 7b 18 bc 90 54 33 bb b4 37 0b 3d
       0.046879433 -0.009306844 -0.0027363636 0.03398867
000040 1a 9a 3a 3d 3c 92 0d bd ae 77 03 3d 24 b7 ae 3c
       0.04555712 -0.034563288 0.032096557 0.021327563
000050 34 2e c4 3c c0 83 96 3c 10 ad 33 bc 28 24 9c bc
       0.023947813 0.01837337 -0.010966554 -0.01906021
000060 48 ad 8c 3b bc 5a 1d bc 36 84 97 bc 7e 7a 24 bd
       0.0042931177 -0.009604152 -0.01849566 -0.04015588
000070 7a 35 34 bd e9 3e e4 bc 98 ea 31 3d 0a 0f 17 3d
       -0.04399631 -0.02786203 0.043436617 0.036879577
000080 78 f4 81 bb b4 2e 36 bd 90 6f a0 bb c8 f5 00 3d
       -0.0039659105 -0.044478133 -0.004896112 0.031484395
000090 2a 7c 43 3d 4c c8 9c bc 68 f4 b4 bb ba 88 a3 bc
       0.047725834 -0.019138478 -0.0055222996 -0.019962657
0000a0 68 22 9e 3c 36 0f ba bc 26 03 0d 3d 58 1f 22 3c
       0.019303516 -0.022712331 0.03442683 0.009895168
0000b0 c0 81 91 3a 22 46 0a 3d d4 dc 97 3c e6 fd 44 bd
       0.0011101291 0.03375829 0.018537916 -0.0480937
0000c0 d3 f8 33 bd 25 90 2d bd a2 92 93 bc 30 72 11 3c
       -0.04393847 -0.042373795 -0.018014256 0.008877322
0000d0 46 3d a9 bc 28 eb 0f 3c 48 72 70 3c a0 82 94 3b
       -0.0206591 0.008784093 0.014675684 0.0045321733
0000e0 b8 89 eb 3c d0 78 42 3c 60 71 3c bc 24 e6 d4 3c
       0.028752193 0.011869624 -0.01150164 0.025988646
0000f0 d6 89 37 3d 5e 53 3b bd 88 74 67 3c 80 8f 32 3d
       0.044809185 -0.045733802 0.014126904 0.043593884
000100 b6 cf 08 bd 48 99 ef 3b f8 51 cd 3c f0 f1 f0 bb
       -0.033401214 0.0073119737 0.0250635 -0.00735306
000110 98 ec 73 bc c8 94 50 bd aa 57 1e 3d c0 2f 0d 3b
       -0.014887951 -0.05092314 0.03865782 0.0021543354
000120 7c b9 4c 3d 3e 7b 08 3d c0 5a 67 3b 0c 17 c5 3c
       0.04998158 0.033320658 0.0035301894 0.024058841
000130 44 ee e6 3c 50 38 49 bd ed 03 1f bd e4 ed f3 3c
       0.028189786 -0.04912597 -0.038822103 0.029776521
000140 40 1f 42 3d f8 dc d6 3b 14 c7 17 bd e4 67 2e bc
       0.047393084 0.0065571032 -0.03705509 -0.010644887
000150 78 2c 1e bc 40 ea fe bb 30 eb 0d bd 38 9a 82 3c
       -0.009654157 -0.0077793896 -0.03464812 0.015942678
000160 18 cb 38 3d dc 5f 19 3d d1 12 2e bd 00 4e b4 3c
       0.04511556 0.037444934 -0.042498413 0.02200985
000170 fc 6d 18 bc d8 8b 04 bd 8c 42 1d 3d 8c 08 06 3d
       -0.009303566 -0.032359928 0.038393542 0.032722995
000180 ca 75 20 bd 60 9a df 3b 38 fb 3c bd d2 c1 cc bc
       -0.039174832 0.006823823 -0.04613802 -0.024994764
000190 50 62 7f bb 40 71 b8 3c 74 a5 ac 3c 27 9e 16 bd
       -0.003896851 0.02251494 0.021074988 -0.03677192
0001a0 a8 7b 7e bc 56 21 0f 3d 2c d3 13 bd d6 fc 29 3d
       -0.015532412 0.0349439 -0.03609006 0.04150089
0001b0 16 70 1e 3d 9c a6 0a 3d 5c 1a 36 3d e0 00 90 bb
       0.038681112 0.033850297 0.044458732 -0.0043946356
0001c0 61 c8 19 bd fc b9 06 3d e0 d3 ed ba d8 9b ee 3b
       -0.03754461 0.032892212 -0.0018144809 0.0072817616
0001d0 f0 62 0c bc 52 e4 cf bc c0 74 0d 3b e1 a2 4b bd
       -0.00856851 -0.025377426 0.002158448 -0.04971588
0001e0 42 2c 21 bd 5c e6 24 3d 64 80 d7 3c 6c 75 a1 bc
       -0.03934885 0.04025875 0.026306339 -0.019709311
0001f0 e0 2a da 3b 74 5c 0f 3c e0 98 be ba a9 b1 4d bd
       0.006657943 0.00875007 -0.001454141 -0.050218258
000200 18 78 ab bb 93 ec 4b bd 8c 5a f5 3c 06 70 2f 3d
       -0.005232822 -0.04978616 0.029950403 0.042831443
000210 f5 0a 15 bd 9e ce b9 bc e8 b0 4e bc 18 52 11 bd
       -0.036387403 -0.02268153 -0.01261542 -0.03547868
000220 ca ed 4c bd d0 23 d7 3b 54 48 13 3d 40 e2 55 ba
       -0.05003146 0.0065655485 0.03595765 -0.0008159019
000230 2c 49 13 bc 2c 72 38 bd 20 d9 a8 ba 34 61 26 3c
       -0.0089896135 -0.045030758 -0.0012882091 0.010155011
000240 76 fe 41 bd ac 57 11 bd a4 86 96 3c 82 ac 4a 3d
       -0.047361813 -0.035484 0.018374749 0.049480923
000250 80 16 d5 3a c0 21 1e bc e0 70 00 3c 28 2e aa bb
       0.0016257316 -0.009651601 0.0078394115 -0.0051934905
000260 34 4e 06 bd 6e 73 33 3d 98 b8 8d 3c 10 5a ad 3b
       -0.032789424 0.043811254 0.017299935 0.0052902773
000270 8c 1c 0c bd d0 04 0e bd c0 9a 53 bb a8 7c 15 bc
       -0.034206912 -0.03467256 -0.0032288283 -0.009123959
000280 d0 bc 3c 3c a8 82 c7 bb c0 e8 7a 3b 2c cc fc bc
       0.011519626 -0.0060885735 0.0038285702 -0.030859075
000290 e8 7c ca 3c db 5e db bc be b8 e5 bc 40 17 c9 bb
       0.024717763 -0.026778629 -0.028042194 -0.006136805
0002a0 60 55 64 bb 3c 16 33 3c 10 b5 71 3c 80 32 96 39
       -0.0034840927 0.010930594 0.014752641 0.00028647855
0002b0 ac c4 05 3d 60 26 69 3c 1c a7 01 3d c0 f8 63 3a
       0.032658264 0.014230341 0.03165351 0.00086964294
0002c0 44 cd d9 3c 88 a2 e5 bb 08 5c 98 3c 58 06 15 bd
       0.026587136 -0.0070079006 0.018598571 -0.036383003
0002d0 dc 39 42 bc 88 6f 91 bb d2 40 2f 3d 6c 53 0f 3c
       -0.011854615 -0.0044383444 0.042786427 0.008747917
0002e0 18 53 16 bc 0a d0 bb bc ca 91 0e 3d ca b0 1b bd
       -0.0091750845 -0.02292635 0.034807004 -0.038010396
0002f0 58 03 2b bd d3 fe e8 bc 02 7f 82 bc 1c 8c 43 bd
       -0.041751236 -0.028441822 -0.015929703 -0.04774104
000300 9e 63 02 bd a7 db 31 bd 0b 43 c8 bc 90 9f ff bb
       -0.031833284 -0.043422367 -0.024446031 -0.0078010038
000310 f8 32 fd 3c 00 21 b6 b9 06 90 4d 3d ce 5f 9e bc
       0.030908093 -0.00034738332 0.05018618 -0.019332793
000320 d8 6a 0f 3c fc cf 0d bd bc 2d f9 3c a0 c9 f4 3c
       0.008753501 -0.034622177 0.030417316 0.029881299
000330 5c 26 43 3d 2d 80 c5 bc 3e aa 0c 3d 12 6b 0b 3d
       0.047644004 -0.02410897 0.034342043 0.034037657
000340 b0 bc 85 bc 20 12 ec 3b ec 78 ae 3c e8 cb d9 3b
       -0.016325325 0.007204309 0.021297894 0.006646622
000350 66 77 d2 bc ec 58 12 bc e6 7e 0d bd 56 46 de bc
       -0.0256917 -0.008932333 -0.034544848 -0.027133148
000360 96 d6 25 3d c0 fa 2a bb 48 b8 31 3c 98 40 79 3c
       0.04048785 -0.00260894 0.010847159 0.015213154
000370 38 b3 e7 3c 68 1b 26 3c d2 0a 49 3d 8c 5d e8 3c
       0.0282837 0.01013837 0.049082585 0.02836492
000380 12 85 0e bd 50 b0 53 3b ac a7 63 bc a8 02 b4 bb
       -0.034794874 0.0032301135 -0.013894957 -0.0054934807
000390 c0 c0 04 bc e0 7c dc 3b a8 31 ff bc 44 95 94 3c
       -0.008102596 0.0067287534 -0.031151608 0.018137582
0003a0 6e 67 25 3d 00 65 cb bb 3c 1d 8b 3c 08 61 e6 3c
       0.04038184 -0.0062071085 0.016981713 0.02812244
0003b0 44 de 1c 3d 1c 33 95 3c 9c 33 4e bc e4 e2 29 3c
       0.038297907 0.018212847 -0.012585547 0.010369036
0003c0 9a fb 3f 3d a0 7a fa 3c a7 bd e6 bc b0 c4 5a 3c
       0.046870805 0.03057605 -0.028166605 0.013352558
0003d0 00 32 33 ba 60 3f c6 3c e4 23 1f 3c ba 5a 04 bd
       -0.00068357587 0.024200141 0.009713147 -0.032313086
0003e0 10 52 c3 3b 6e 28 15 3d 8c b7 cd bc c4 88 4c 3d
       0.0059607103 0.03641551 -0.025111936 0.049935117
0003f0 a6 8a 19 bd 5a c7 34 bd 24 5b 06 3d c0 a7 48 3b
       -0.03748574 -0.04413543 0.032801762 0.0030617565

bias f4 [48]
000000 1f 0e 37 bd 14 20 0c bd c0 90 4a bb c8 79 12 3d
       -0.0446912 -0.03421028 -0.0030909032 0.03576067
000010 97 c2 13 bd 86 33 10 bd a2 aa f7 bc 62 56 49 3d
       -0.036074247 -0.035205387 -0.030232731 0.049154647
000020 a0 47 88 3c b0 26 ad 3c b8 bb 09 3c ac d5 0a bd
       0.016635716 0.021136612 0.008406572 -0.03389518
000030 6d 59 bd bc 00 4e d0 ba f0 39 4b bc 58 71 5b 3c
       -0.02311393 -0.0015892386 -0.01240395 0.0133937225
000040 a4 91 00 bd b2 4b 38 3d 98 4a 9d 3b 2a b4 9c bc
       -0.031388894 0.044994064 0.004800152 -0.019128878
000050 ca 08 2b bd 80 ff 12 3a 21 65 c0 bc d8 64 f5 3c
       -0.04175643 0.00056075305 -0.023485722 0.029955313
000060 3c dc d8 3c d4 7d 3e 3d 78 7a 61 3c e8 01 46 3c
       0.026472203 0.046506718 0.013762109 0.012085415
000070 90 46 d2 3b 51 aa fb bc e0 e6 26 3b 58 44 90 3c
       0.006417103 -0.030720862 0.0025467202 0.017610714
000080 bc 3b ae 3c 00 f3 33 bc 58 65 b3 bc 1c 26 87 bc
       0.021268718 -0.010983229 -0.02189891 -0.016497664
000090 92 83 06 3d 46 5b 96 bc f3 4c d9 bc 34 bc 4e 3d
       0.03284032 -0.01835407 -0.02652595 0.050472453
0000a0 64 aa 42 bd 24 15 f4 3c 08 d7 a8 3b c4 f7 8a 3c
       -0.04752578 0.029795237 0.005152587 0.016963847
0000b0 80 3a 12 3c 20 7d f8 bc 5c ae 0f bd 20 2a 41 3d
       0.00892508 -0.030333102 -0.03507839 0.047159314

weight f4 [50, 192]
000000 30 e7 9b 3b 94 55 8f 3c 80 cf 87 3a ac 71 31 bd
       0.0047577843 0.017496862 0.0010361522 -0.043321297
000010 2c ea 32 bc d0 34 88 3c c0 36 4c 3b c8 ed 84 3d
       -0.010920089 0.016626745 0.0031160563 0.06490666
000020 74 40 46 bd 6f a0 69 bd 2e c7 93 3d f8 1c 61 3c
       -0.04840131 -0.057037767 0.07215725 0.013739817
000030 5e 86 23 bd 6a ac 2b bd 72 f3 48 3d 6e 3d 3d 3d
       -0.039923064 -0.041912474 0.049060293 0.046201162
000040 cb a0 19 bd 3b 87 69 bd c1 f0 08 bd e0 41 0c bc
       -0.03750686 -0.05701373 -0.033432726 -0.008560628
000050 c0 e1 12 3b 54 76 93 3d 8e cd 4d bd 0a aa 04 3d
       0.002241239 0.07200304 -0.05024486 0.032388724
000060 ea 44 01 3d 9c a9 b8 3c 52 71 93 bc e0 08 2f 3d
       0.031559862 0.022541814 -0.017998371 0.042733073
000070 88 98 b1 3c 4c 07 c1 3c 90 34 f0 3c d0 6d 88 3d
       0.021679178 0.02356305 0.029321939 0.0666157
000080 40 68 3b 3c b6 c5 a2 bc c2 87 2c 3d 04 20 ce 3c
       0.011438429 -0.019869667 0.042121656 0.02516175
000090 f4 08 88 bc c5 c6 7c bd 60 98 c1 bb 68 12 4e 3d
       -0.016605832 -0.061713 -0.005908057 0.050310522
0000a0 48 5c 8f bd 60 df de 3c 08 d2 4a bd 42 9a 6c bd
       -0.07000023 0.027206123 -0.049516708 -0.0577643
0000b0 4c d7 65 3d 40 39 d9 3a 55 cf 64 bd 2e 79 3e bd
       0.056113526 0.0016572848 -0.05586179 -0.046502285
0000c0 80 47 f4 3a 20 0a e7 bb 40 88 81 bd a2 02 8a bd
       0.0018637031 -0.0070507675 -0.06324816 -0.067387834
0000d0 60 dc fd 3c a0 22 75 bb 54 59 85 bd 00 47 71 3d
       0.030988872 -0.0037404671 -0.065111786 0.0589056
0000e0 30 63 e6 3b 9a 3f 9c bc 08 59 48 3c 98 83 e0 bc
       0.007030867 -0.019073296 0.012228258 -0.027406499
0000f0 98 20 9b 3c 38 81 74 3d 70 cd e6 3b 25 05 81 bd
       0.01893644 0.059693545 0.007043533 -0.06299809
000100 04 da fc 3c 00 50 c9 bb b6 8b 8b 3d dc 17 81 3d
       0.030865677 -0.00614357 0.06813757 0.06303379
000110 4a a9 8b 3d 26 8c cb bc 69 5f 0e bd 10 09 9f 3b
       0.06819399 -0.024847101 -0.03475896 0.0048533753
000120 0a 08 84 3d 92 fd 10 3d 04 ae 56 3d b0 49 ab 3b
       0.06446846 0.035398073 0.052412048 0.00522729
000130 92 5f 84 bc 18 ad 5c 3d 88 e5 69 3d bc 8e b0 bc
       -0.016158853 0.053876013 0.057103664 -0.021552436
000140 fc f7 b4 3c 06 8d 88 3d 8d 0d 85 bd f6 ae e9 bc
       0.022090904 0.06667523 -0.06496725 -0.02852581
000150 05 e8 6e bd f2 dd 27 3d a8 3c f7 bc 1c f1 5c bd
       -0.05832674 0.040983148 -0.03018029 -0.053940877
000160 10 77 b1 bb 88 ff 22 bd ea 4b 09 3d b4 42 ad 3c
       -0.0054158047 -0.039794475 0.033519663 0.02114997
000170 10 19 74 bd ba 8d ed bc 7f a7 5a bd 9a c3 93 bd
       -0.059594214 -0.028998245 -0.053382393 -0.072150424
000180 e6 8f 80 bd ce b5 37 3d b7 e3 2a bd 80 42 69 bb
       -0.062774464 0.044851117 -0.041721072 -0.0035592616
000190 58 cc e3 bc ca 83 45 3d 8c 9b 14 bd 8c 48 7e 3d
       -0.0278074 0.048221387 -0.036281154 0.062080905
0001a0 a0 5b 05 3d f0 e3 a2 3c f4 ff 8a 3d 80 06 d4 3a
       0.032558084 0.01988408 0.067871004 0.0016176254
0001b0 38 73 26 3d c8 cc 4a bc 27 70 88 bd a8 fb 21 3c
       0.040637225 -0.012377925 -0.06662016 0.00988666
0001c0 8c e8 62 bd 1c 64 bf bc 05 7a 18 bd 7c c1 0e 3d
       -0.055397555 -0.023363166 -0.037225742 0.03485249
0001d0 90 da 85 3d 74 09 42 bc f8 35 5f 3d 10 28 41 bc
       0.06535828 -0.011843074 0.054494828 -0.011789337
0001e0 10 1b 81 3b e0 e5 00 3b ac 7a ad 3c 1c a2 53 bc
       0.0039399937 0.0019668266 0.021176659 -0.012917068
0001f0 e0 54 9a 3b 00 d0 3b 38 e9 d6 17 bd 90 e4 6b 3c
       0.004709825 4.477799e-05 -0.03707019 0.014397755
000200 c4 df 0a bd b8 31 02 3c 80 9b 9d ba 6c 60 61 bd
       -0.033904806 0.007946424 -0.0012024492 -0.055023596
000210 36 98 3e bd 14 70 52 3d ac bc 58 3d 6a 2c 77 bd
       -0.04653188 0.051376417 0.052914307 -0.06034509
000220 be e8 55 3d 26 48 7c bd a0 2d 44 bb 78 c7 78 3c
       0.052223913 -0.061592244 -0.0029934421 0.015184276
000230 88 af 93 bc 65 c7 1b bd c9 91 6b bd 28 29 ed 3c
       -0.018028036 -0.038031954 -0.05751208 0.028950289
000240 b4 b1 cd bc 46 c3 38 3d 72 02 1b bd 4e 3a f1 bc
       -0.02510915 0.045108102 -0.03784413 -0.029446747
000250 ec c4 30 bd 68 5a 0d 3c fa 46 91 3d 64 69 68 3d
       -0.04315655 0.008627512 0.07093616 0.056741133
000260 56 5d 1e 3d e4 9c 09 3d 6f 49 74 bd 9c c5 4d 3d
       0.03866323 0.03359689 -0.059640344 0.050237283
000270 e6 1a 84 3d 04 1d 21 3d a4 e3 5e bc a0 0c f3 3c
       0.06450443 0.039334312 -0.013604078 0.029669106
000280 b8 db 97 3c 3e 9b 9e bc 90 c9 78 bd 00 b5 80 bd
       0.018537387 -0.019361135 -0.0607391 -0.06284523
000290 b8 f9 07 3d 8a de d7 bc e0 b4 8a 3b 00 30 07 bd
       0.033197135 -0.026351232 0.0042329878 -0.03300476
0002a0 70 fe ee bc b6 8c 45 3d aa bc 8d 3d 4d a9 35 bd
       -0.02917406 0.048229896 0.069207504 -0.04435091
0002b0 50 0e af 3c 58 3e 66 3d 1a d7 8d 3d d2 11 86 3d
       0.02136913 0.0562118 0.06925793 0.06546368
0002c0 98 69 7d bc c0 d5 c7 3a d8 4a ad 3c 20 9b a2 bb
       -0.01546707 0.0015246198 0.021153852 -0.00496234
0002d0 b2 6b 83 3d c4 2d f7 3c 82 fc ed bc ca cf 1e bd
       0.064170256 0.03017319 -0.02905107 -0.03877238
0002e0 00 e9 51 bb 28 26 7f 3d bb 91 83 bd d4 62 75 3d
       -0.0032029748 0.062292248 -0.0642428 0.059908703
0002f0 b4 27 2c bc 05 0c 0e bd f2 c2 8e 3d 94 98 09 3d
       -0.010507513 -0.03467943 0.069707766 0.033592775
000300 58 fe 6c 3c c0 46 f3 ba 13 01 84 bd 84 d6 76 3d
       0.014464937 -0.0018560514 -0.064455174 0.06026317
000310 7e 96 e9 bc 10 a4 6e 3d b4 65 01 3d 5c 6a 83 3d
       -0.028514143 0.05826193 0.031591132 0.06416771
000320 68 ec 61 3d df 19 17 bd 86 1e 14 3d 60 23 e6 3c
       0.055157095 -0.036889907 0.036161922 0.02809304
000330 b8 d1 8d 3c 12 60 56 3d 54 a4 78 3d 50 87 23 bc
       0.017311916 0.052337714 0.06070359 -0.0099809915
000340 5e b4 18 bd 99 4c 62 bd c8 1b 69 3d 1a 35 1e 3d
       -0.037281387 -0.05524883 0.05691126 0.03862486
000350 d9 1c 7c bd d6 9c c6 bc dc 9a 80 3d 10 a8 b1 3b
       -0.06155095 -0.024244707 0.06279537 0.005421646
000360 35 1e 83 bd bc 42 cb 3c f0 29 1a 3c 9e 7e 2a 3d
       -0.06402246 0.024812095 0.009409413 0.041624658
000370 18 0e b2 bc cd 89 83 bd 04 24 65 3d 50 09 8d 3d
       -0.021735236 -0.06422768 0.05594255 0.06886542
000380 38 53 92 bd b8 c0 4e bd 99 5d 5c bd 74 28 5f 3d
       -0.07144779 -0.05047676 -0.0538002 0.05448194
000390 36 89 16 bd 00 58 bd ba 2f 76 93 bd 10 ff a2 3b
       -0.03675195 -0.0014445782 -0.07200276 0.0049742535
0003a0 80 ab d6 3b 22 0d 3a 3d 10 c8 7e 3d 9c d8 e7 3c
       0.006551206 0.04542268 0.062202513 0.02830153
0003b0 b4 fc 2d 3d 7a 05 28 3d d6 6e 11 bd b4 8d 94 3c
       0.042477325 0.041020848 -0.035506092 0.018133976
0003c0 28 a1 17 bc f4 57 6b 3d 98 af 75 3d 1e 99 1c bd
       -0.009254731 0.057456926 0.059981912 -0.03823196
0003d0 68 fb 3d bc 00 fb 5a ba 5e 43 06 3d 04 c4 88 3c
       -0.011595584 -0.0008353442 0.03277909 0.01669503
0003e0 64 3e c3 3c 8e 2e 91 bd c8 69 0a 3d 7b 18 7b bd
       0.023833461 -0.07088958 0.033792287 -0.061302643
0003f0 1a 3a 16 3d ca 1c 2a bd dc fb 78 3d 54 8b 00 3d
       0.036676504 -0.04153136 0.060787067 0.031382874

bias f4 [50]
000000 d2 65 d2 bc 76 0e f0 bc 3a d7 27 bd d8 97 7a bc
       -0.025683317 -0.02930377 -0.04097674 -0.015294991
000010 62 9e 3d 3d 78 76 86 bc 84 1a 91 bc 68 85 4b 3d
       0.046293624 -0.016413912 -0.017712839 0.049687773
000020 1c a3 57 3d d0 f4 1c 3c 40 a4 45 bb 70 6d ec bb
       0.052645788 0.009579852 -0.0030157715 -0.0072151944
000030 a0 43 4b 3b 68 8d 42 bd 08 f0 33 bc a8 71 80 3d
       0.003101565 -0.047498137 -0.010982521 0.06271678
000040 70 0a f2 bc f6 27 44 3d 00 c2 ae 3c 78 7e 7a 3c
       -0.029545993 0.047889672 0.02133274 0.015288942
000050 10 76 04 bd fa 54 60 bd ac 0f 41 3d ea e9 48 3d
       -0.032339156 -0.05476854 0.047134086 0.049051203
000060 80 e0 a9 3c 37 9c 77 bd d4 93 65 3d 60 fc 4a bd
       0.020736933 -0.060451712 0.056049183 -0.04955709
000070 de 20 4e 3d 0a 16 85 bd 44 71 66 3d ca 59 85 3d
       0.050324313 -0.06498344 0.056260362 0.065112665
000080 d8 f0 7e bd 00 80 03 38 b4 ca 95 3c 68 7e ff bc
       -0.062241405 3.1352043e-05 0.018285133 -0.031188205
000090 a8 fd e5 3c a0 7a c0 3c c2 45 17 bd 36 06 e7 bc
       0.028075054 0.023495972 -0.03693176 -0.028201204
0000a0 f0 af af 3b 50 74 cf bb 5a ab 89 3d fa e5 2b 3d
       0.0053615496 -0.006331004 0.06722136 0.04196737
0000b0 61 1a 91 bd 98 13 59 3c 90 bc f8 3b ed 39 8c bd
       -0.070851095 0.0132493 0.007590838 -0.06846986
0000c0 c0 9a b5 3b 08 3e 05 3c
       0.0055421293 0.008132465

weight f4 [1, 50]
000000 e0 32 e5 bc a5 76 09 3e e0 c4 63 bd 66 50 c0 3d
       -0.02797836 0.13424166 -0.055607677 0.09390335
000010 d2 1e 9d 3d 50 ee c7 3d f0 1b fa bd b0 5c 3a bd
       0.07671894 0.097622514 -0.1221236 -0.04549855
000020 e0 9f 56 bc ae b0 52 bd 44 9e ae bc 28 aa 8d 3c
       -0.013099641 -0.051438026 -0.021315701 0.01729305
000030 25 f2 00 3e 88 c7 b7 bd c2 bc e4 3d 7c cf 2f 3d
       0.12592371 -0.089736044 0.11168815 0.042922482
000040 24 d6 cc bd b0 04 5a 3d 52 c7 93 bd 10 64 d2 bd
       -0.100017816 0.053227127 -0.07215752 -0.10272992
000050 58 0b ac bd b0 da 99 bd 00 55 4a bb 96 c9 ed 3d
       -0.08400601 -0.075124145 -0.0030873418 0.11610715
000060 1f 87 95 bd b6 db 9b bd 10 b8 35 3d ce 03 d5 bd
       -0.07301163 -0.07610266 0.04436499 -0.10401116
000070 04 ed eb bd 8e 5f c7 bd aa a2 f9 3d 30 ab 70 bd
       -0.115198165 -0.097350225 0.12189229 -0.058757007
000080 4e 43 f0 3d 5e 72 29 bd 48 fd bd bd 3c f6 9d 3d
       0.11731587 -0.041368835 -0.09276825 0.07712981
000090 c0 fa 07 bc 68 fa 73 bd 74 5c bb bd 4c 4d cc bd
       -0.00829953 -0.059564978 -0.091484934 -0.09975681
0000a0 16 af 9c bd 30 78 c5 bd 08 c1 85 bc aa 1a e0 3d
       -0.076505825 -0.096420646 -0.016327396 0.10942586
0000b0 30 21 10 bd 76 c9 00 be 6f bf 8c bd d0 ea 4f bc
       -0.0351879 -0.12576851 -0.068724506 -0.012690261
0000c0 fa d5 68 bd ac dd ff bc
       -0.05684469 -0.031233631
